best_rnn_model.pt (torch, 97422 bytes, 6 tensors)

rnn.weight_ih_l0 f4 [128, 50]
000000 25 28 04 3e 53 3e 7b 3e 40 98 70 3e cf a9 9a 3d
       0.12905939 0.24535494 0.23495579 0.0755192
000010 fe b4 a6 3e 1e 5c a0 be 0f 0c 9e bd 75 e8 90 be
       0.3255996 -0.3132028 -0.07717144 -0.2830235
000020 2f c5 59 3e a0 e7 75 3e 25 e5 0b be 65 61 af bf
       0.21266626 0.24014139 -0.1366163 -1.3701597
000030 03 8d 28 3e 08 d2 22 be cb 0b 3a be 31 83 0b 3f
       0.16460042 -0.15900433 -0.18168561 0.5449706
000040 56 0b 3b bf 78 15 c4 3c 1d 64 a3 3d 64 e5 da 3c
       -0.7306417 0.023936018 0.079780795 0.02672071
000050 cd c0 0c 3d 16 70 b0 be f7 06 5b be 83 fa ce bc
       0.034363557 -0.34460515 -0.21389376 -0.025265938
000060 70 46 7e be 49 73 24 bf fb b2 88 bd bb 64 a2 3d
       -0.24831557 -0.6423841 -0.06674763 0.07929369
000070 94 73 a2 be 76 ae a0 3e 3d 2e 3a 3f 57 ec 0b 3e
       -0.31728804 0.31383103 0.72726804 0.13664375
000080 2b 75 57 3e e4 cd 7e 3d 43 26 a1 3e e9 1e 47 bf
       0.2104079 0.06220807 0.31474504 -0.7778154
000090 0e e9 a4 3d 34 fe bd 3e f2 fa ee be 91 1a 4d be
       0.08052264 0.37108004 -0.4667583 -0.20029666
0000a0 7c 10 34 bf 39 33 25 bf 7f 1d 5b bc e1 12 79 3f
       -0.70337653 -0.64531285 -0.013373732 0.9729443
0000b0 10 49 00 bd b8 f3 97 3e 6f 9a 1e be 9c 5b b2 3e
       -0.031319678 0.2967813 -0.15488599 0.34835517
0000c0 36 b9 12 3e 38 cf 8b be 7a 55 55 bd 6d 9b 96 be
       0.14328465 -0.27306533 -0.05208347 -0.29415455
0000d0 1c 65 3b 3d b0 f6 b6 bc f8 93 35 3e 6a 91 3f be
       0.045750722 -0.022334427 0.17732227 -0.18707815
0000e0 52 a5 c1 3e b6 44 b0 3d f8 f8 4d 3e 58 89 24 3e
       0.37821442 0.086068556 0.20114505 0.16068017
0000f0 37 e1 f8 be 3c 55 cc be ae 04 ae 3e aa e2 e5 3e
       -0.48609325 -0.3990878 0.33987945 0.44899493
000100 9e 06 84 be 26 b2 24 bd ed 67 cc bb 71 50 58 3d
       -0.257863 -0.040208958 -0.006237975 0.05281109
000110 f7 49 89 be bd 3f e2 3c ed c3 87 be ba 15 92 bc
       -0.26814243 0.027618283 -0.26516667 -0.017832626
000120 d0 1b 75 3e 66 2a 96 be 92 75 3e 3e d1 9e 26 3e
       0.23936391 -0.29329222 0.18599537 0.16271521
000130 7a b4 7b be 8e e5 e4 3e ee be 91 3e dd ca a8 be
       -0.24580565 0.44706386 0.2846598 -0.32967272
000140 aa 62 ad be e0 21 d9 3d 3d 34 a7 3e 00 52 00 3f
       -0.33864337 0.10602164 0.32657042 0.5012512
000150 5f 65 28 3e 5a 97 85 3e b1 22 d1 3d 73 2d f7 be
       0.1644492 0.26092035 0.10211695 -0.48276863
000160 17 2d 4c be 98 39 84 bd 34 bf 0f be 3d 05 f7 bd
       -0.19939075 -0.06456298 -0.14037782 -0.12061546
000170 a9 3d 87 bd 37 69 9c 3e b4 c0 0c 3f 3a 53 6b be
       -0.066035576 0.30549023 0.5498154 -0.22980967
000180 ff 82 b9 3e 06 87 86 3e 61 be 09 be d2 2c 8c be
       0.36232755 0.2627489 -0.1345153 -0.27377945
000190 d5 7c c8 3b c1 13 b1 3b f6 ff 55 be 85 aa 9f bd
       0.0061183968 0.005403966 -0.20898423 -0.07796196
0001a0 5d 94 7f bd 94 55 e8 3d 0c 39 b5 bd b2 3c 9b 3d
       -0.06239735 0.11344448 -0.088487715 0.07579936
0001b0 59 46 98 bb 83 33 b4 be f8 60 ff 3d bc cd dc bd
       -0.004647058 -0.3519555 0.12469667 -0.10781428
0001c0 97 e6 2c 3d 15 3c 28 3d 58 28 fc 3d 54 7c a1 bd
       0.042212095 0.041072924 0.123123825 -0.07885042
0001d0 b4 96 3b 3e ee f7 c9 3d bf 50 5b bb 0d 9d b6 3e
       0.18319207 0.09861742 -0.0033464876 0.35666695
0001e0 b9 2c 29 be e5 cd ba 3d a8 6a 0a 3e 4b 34 58 3e
       -0.16520967 0.091213025 0.13517249 0.21113698
0001f0 0f fa 32 be 36 eb 7a bd 17 6e 2d 3d 80 14 02 3d
       -0.17478202 -0.06125947 0.042341318 0.03175783
000200 32 11 1a be 2a c8 d1 bd 7f 64 a9 3d 68 4b 24 bd
       -0.15045622 -0.102432564 0.08271121 -0.040110976
000210 13 94 54 3c 79 41 61 be 16 79 32 3d 06 b1 04 3d
       0.012974757 -0.21997632 0.043572508 0.032395385
000220 d3 1a ae bd f4 43 82 bd ba eb 4d 3c 57 bd 81 3d
       -0.0850121 -0.06360617 0.012568409 0.06334942
000230 5f c5 05 be 40 06 1d be 25 18 71 3d a5 55 c5 bd
       -0.13063572 -0.15334415 0.058860917 -0.09635476
000240 23 c4 83 bd 88 5a 68 3d 27 21 e2 bd 84 19 ab bd
       -0.064338945 0.056726962 -0.110414796 -0.08354476
000250 76 cc a1 bd 3e 29 41 be b3 64 bb bd c8 1e 3b 3e
       -0.07900326 -0.18863389 -0.09150066 0.18273461
000260 32 91 80 3e 45 e1 98 be 53 38 a0 bd 18 3d 69 be
       0.25110775 -0.29859367 -0.07823243 -0.22777212
000270 58 57 4a 3c 26 49 6a bd c3 8f 15 3e 62 b2 09 be
       0.012349926 -0.057198666 0.14605622 -0.13446954
000280 4a 38 10 be c9 5a de 3d 0e 60 a2 bc c5 04 a1 3d
       -0.14083973 0.1085716 -0.019821193 0.07862238
000290 ca bb 1e 3e 42 c8 b5 bc 06 97 f5 bd a1 87 68 3d
       0.15501323 -0.022190217 -0.11991696 0.05676997
0002a0 ea 56 a2 bd af 7d 63 be a7 b1 07 be f9 80 21 bc
       -0.07926734 -0.22215913 -0.13251363 -0.00985741
0002b0 0e 5c 31 3d c8 bf f2 3d 5d d5 1f 3d f4 1c cd 3c
       0.04330068 0.118529856 0.03902184 0.02503822
0002c0 86 4e 9e 3d b6 59 d0 bd 86 55 1c 3e 52 c0 0a 3d
       0.07729821 -0.10173361 0.15267 0.033874817
0002d0 a3 fe dd bc 29 13 16 3e b8 4a 61 be ae 10 20 3d
       -0.02709896 0.14655747 -0.22001159 0.039078407
0002e0 79 d6 5b 3d 44 f4 e8 3d e0 a9 8e 3e c8 82 0a 3e
       0.053671334 0.11374715 0.2786398 0.13526452
0002f0 d7 68 d9 bd 80 54 62 bd 61 ea 98 3e fc ad 0f 3e
       -0.106157 -0.055256367 0.29866317 0.14031214
000300 24 28 62 3e d4 13 4a 3e 22 f0 d4 bd 5f a8 e5 bc
       0.22085625 0.19734126 -0.10397364 -0.028034387
000310 e3 6d ff 3d 61 f7 88 bd 67 9f c3 bd 37 ab 96 3e
       0.12472131 -0.06687809 -0.09551888 0.29427502
000320 04 3c f3 be 63 d7 1f bf c2 8e bc be 37 a7 db be
       -0.47506726 -0.6243803 -0.36827666 -0.42901012
000330 e1 7d 23 3f 90 3b 56 3d c6 d4 c7 be 96 77 a7 be
       0.6386395 0.052302897 -0.3902952 -0.32708424
000340 36 58 46 3e 03 a5 82 3f 48 ac b6 bd ca 56 04 3e
       0.19369587 1.0206608 -0.08919579 0.12923732
000350 3b e8 0a be 0e 56 0a 3c 0c 3b f4 be ae 53 b8 bd
       -0.13565151 0.008443369 -0.477013 -0.09000336
000360 e0 c3 6e 3e 2a 1f 0d bd f5 28 cd 3e 9a 51 22 bf
       0.23316908 -0.03445355 0.4007031 -0.63405764
000370 4b 48 ec be b9 bd a6 3e 26 ee 81 3d 1b be f8 3e
       -0.46148905 0.32566622 0.06344251 0.4858254
000380 0c 4a f7 3e 71 0f 91 3d 50 93 eb 3a 82 1e aa 3e
       0.4829868 0.07083023 0.001797298 0.332264
000390 06 b4 5b 3f 1c ee 86 3e a0 a2 05 3f 4a 77 f9 3e
       0.8582157 0.26353538 0.5220127 0.48723823
0003a0 45 b3 23 3f 95 9d e7 3e 96 df a5 bd b9 55 e6 3e
       0.6394542 0.45237413 -0.08099286 0.44987276
0003b0 6d 6c 47 bf 99 94 21 3f d9 7c f1 3d 5c 2e 98 bd
       -0.7789982 0.6311737 0.11791391 -0.07430717
0003c0 bd 62 22 3f bf 43 fb 39 c9 ef 0a bf ea 91 5f 3d
       0.6343191 0.00047924925 -0.54272133 0.054582514
0003d0 fa d1 77 3d d4 65 6c 3f 1b b8 13 3e 6a e5 81 be
       0.060502984 0.9234288 0.144257 -0.25370342
0003e0 f6 47 3a 3f 50 d3 f0 bd e2 fc 36 be 83 20 dc 3e
       0.72766054 -0.11759055 -0.17869905 0.42993554
0003f0 4a ec dd be 97 15 4b 3e 74 3c d5 bd 7b 78 1f 3e
       -0.43344337 0.19832455 -0.10411921 0.15573303

rnn.weight_hh_l0 f4 [128, 128]
000000 dc f6 66 3e 57 b7 56 3c 87 8a 89 be 75 15 5b 3e
       0.22555107 0.013105235 -0.268635 0.21394904
000010 d1 41 68 3e 01 1b 90 be ae 79 aa be 96 52 43 be
       0.22681357 -0.28145602 -0.3329596 -0.19074473
000020 49 fa 86 be f5 38 55 3e 42 10 b7 3d 78 43 64 3e
       -0.26362827 0.20822509 0.08938648 0.22291362
000030 04 14 bb be 5c 06 a7 be 20 17 7c 3d f3 e0 68 be
       -0.36538708 -0.3262204 0.06154549 -0.22742061
000040 44 e0 9b be 4e 33 09 bd f3 56 9e 3e 5c 1a ea 3e
       -0.3044454 -0.033496194 0.30925712 0.45723236
000050 16 c9 68 be 05 73 99 3d a6 f5 84 3e dc 63 a6 3e
       -0.22732958 0.07492641 0.25968665 0.32498062
000060 6c 91 d3 3e 3e 26 e2 3e 64 ae e3 bd 8c 95 ab be
       0.41321886 0.441698 -0.11117247 -0.33512533
000070 2c 8f d3 be 0b 0c cb be 5d 15 c9 bd 50 20 d9 3e
       -0.4132017 -0.39657626 -0.09818528 0.42407465
000080 c8 6d 8d 3e 56 a2 cd 3c 0c fc ef bd 04 70 5c be
       0.2762282 0.025101822 -0.11717996 -0.21527106
000090 75 a4 71 be 63 f8 68 3e 6d a1 9b 3e 95 fa b5 be
       -0.23597892 0.22751002 0.30396596 -0.3554274
0000a0 20 16 ec 3d 78 6c 0c be 04 2e 2e be 8f 27 b7 be
       0.115276575 -0.13713253 -0.17009741 -0.35772368
0000b0 a4 f8 e2 bd a6 aa 3f 3e 4f bb 81 3e 8c 9e 8a be
       -0.11082581 0.18717441 0.25338218 -0.27074087
0000c0 fe c8 ee be 4a 9e 69 3e 4d a1 80 3e b1 df ae 3d
       -0.4663772 0.22814289 0.25123063 0.085387595
0000d0 3e 00 25 3d 52 2e b7 be 4a f1 95 bd 87 cb bf 3e
       0.040283434 -0.35777527 -0.07321413 0.37459967
0000e0 ae fc 06 bf 20 b7 e3 3d ef 55 5b 3e a6 3b be bd
       -0.5272931 0.11118913 0.214195 -0.09288721
0000f0 ff 2d 41 be c4 6d 66 3e 5a 6e 73 be b9 76 88 3e
       -0.18865202 0.2250281 -0.23772565 0.26653078
000100 3d 9c e9 bb 80 1b 89 be e6 3f 2d be c1 36 8a bc
       -0.0071292208 -0.26778793 -0.16918907 -0.016871812
000110 a8 a5 de be 4f 15 bf be 19 58 84 3e fc 61 e5 3e
       -0.4348576 -0.37320945 0.25848463 0.4480132
000120 ca 9e 07 3e 41 6f 8f be 9b 70 ba be e8 71 89 3e
       0.13244167 -0.28014567 -0.36414036 0.26844716
000130 83 a2 e1 3e 2a 0d 9f be b1 54 19 be 7f ca 52 3e
       0.440693 -0.3106473 -0.14973713 0.20585059
000140 1a 08 dc be 8b 05 f1 3d 60 fc c0 be a9 36 cd 3e
       -0.4297493 0.11768635 -0.37692547 0.40080765
000150 49 79 bc be de b0 94 3e 65 47 ec 3e 40 0f a3 3e
       -0.36811283 0.2904119 0.4614822 0.31847572
000160 35 f5 82 be f3 68 83 bd 0d ff 19 be 1f fa a1 3c
       -0.25577703 -0.06416502 -0.150387 0.019772587
000170 c5 17 78 3e c5 ee 98 bb 24 26 8d be 83 b1 3e be
       0.24227817 -0.0046671354 -0.2756816 -0.18622403
000180 5d bf 54 3e 2d 87 97 be b6 06 83 be 4e 92 1c 3b
       0.20776124 -0.29595318 -0.25591058 0.0023890915
000190 55 b2 b5 be 64 33 b2 be b9 d1 01 3e 8b be 0f be
       -0.3548762 -0.34804833 0.12677659 -0.1403753
0001a0 ce ce 46 3d 43 29 a2 3e 51 8e 93 3c ea 9f cd be
       0.048537068 0.31672105 0.018012198 -0.40161067
0001b0 a7 db 6b 3d 9c 17 75 be 93 21 69 be 89 3f 72 be
       0.057582524 -0.23934788 -0.22766714 -0.23657049
0001c0 85 d5 67 3e d2 c1 da bd a3 27 b3 3e 82 58 b3 3e
       0.22640045 -0.106814995 0.34991178 0.35028464
0001d0 74 db 58 3e d9 40 4b be c1 fd 66 be a0 37 7e 3e
       0.21177465 -0.19848956 -0.22557737 0.24825907
0001e0 47 4f 6d 3e 62 2f 10 3e f1 4d 98 be 34 e9 27 3f
       0.23174773 0.14080575 -0.29746965 0.65590215
0001f0 2c bd 7c be ce fe ab 3e fd c4 00 bd 8d 3a 0c be
       -0.24681538 0.33592838 -0.031437863 -0.1369421
000200 e7 57 be 3e e3 39 13 be f8 cb 7a 3e cf 7b c6 be
       0.3717644 -0.14377551 0.2449187 -0.38766333
000210 19 80 b5 be dd e8 f0 3e e6 04 9d 3e 08 7b 31 3e
       -0.35449293 0.4705266 0.306678 0.17332089
000220 2d b7 d9 3e 1a 95 98 be c6 2c 1c be d2 0a db be
       0.42522565 -0.29801255 -0.15251455 -0.42781693
000230 d8 67 02 3f fb 15 d6 3e bc 63 f1 3e 6f e5 9e 3e
       0.50939703 0.41813645 0.47146404 0.3103442
000240 f9 00 be 3e e7 70 07 3f 69 70 05 bf b4 0c 8e be
       0.37110117 0.5290665 -0.5212465 -0.27744067
000250 b9 02 c2 3e 54 10 66 be b6 41 9b be 2e ce b0 be
       0.37892702 -0.22467166 -0.3032357 -0.34532303
000260 fb a9 ee be bf d2 8e be cf cb 00 3f 1a 98 80 3e
       -0.4661406 -0.27895162 0.5031099 0.25116044
000270 69 aa b4 3e 30 b1 9f 3e 90 e2 dc 3e 5f 6c ed be
       0.35286263 0.3118987 0.43141603 -0.46371743
000280 0f 4f 64 be 2c 0e 89 be 1a 84 72 3e 4f 87 96 3e
       -0.22295783 -0.26768625 0.23683205 0.29400107
000290 42 f8 b5 3e f6 2c 87 be aa c3 c1 be 11 a7 9b 3e
       0.35540968 -0.2640149 -0.37844592 0.304009
0002a0 a8 4e 87 3e 2c 13 8c 3e e6 9a 45 3e aa 4f e0 3e
       0.26427197 0.27358377 0.1929737 0.4381078
0002b0 91 ca dc be b1 67 9f be 98 04 a3 be 72 69 cd 3e
       -0.43123296 -0.31133798 -0.31839442 0.4011951
0002c0 7d 4a 0f 3f 27 97 5f be 56 9b db be ae b2 04 3f
       0.55973035 -0.21835004 -0.4289195 0.51835144
0002d0 1d 33 31 be 94 b5 b6 3e 24 48 8f 3e 18 a0 6b be
       -0.17304654 0.35685408 0.27984726 -0.2301029
0002e0 2e e6 9b 3e 6d 17 b3 be 56 01 ae be 8e 43 87 3e
       0.3044905 -0.3497881 -0.33985394 0.26418728
0002f0 71 be 1b 3e 26 d9 8e be 46 d8 a3 3e 4f 7a aa be
       0.15209366 -0.27900046 0.3200094 -0.3329644
000300 6d e7 12 bf 84 f8 4b 3e 68 37 c4 3e f3 c5 8b 3e
       -0.5738438 0.1991902 0.38323522 0.2729946
000310 c2 76 9d 3e 5b 50 e5 3e 00 53 7c be b6 fc 4d be
       0.30754668 0.4478787 -0.24641037 -0.20115933
000320 c0 1e 9c be c7 27 be 3e b6 f5 c5 3e 0b 60 69 be
       -0.3049221 0.37139723 0.38664025 -0.22790544
000330 39 75 d6 be 23 b4 8b 3e 09 97 b2 3e 01 d0 c4 be
       -0.4188631 0.2728587 0.34880856 -0.38439944
000340 34 a9 93 3e 93 24 16 3f d2 be d7 3e 05 0e c3 be
       0.2884003 0.5864956 0.42137772 -0.38096634
000350 30 1f 87 3e 92 db 7e be 20 84 99 be 50 c2 c6 be
       0.26390982 -0.24888447 -0.29983616 -0.38820124
000360 ab dd b1 3e 92 82 d8 be b5 23 aa 3e ba 2b 38 3e
       0.34739432 -0.42287117 0.33230367 0.1798543
000370 1a 5a 98 be 84 bb 02 bf 14 8b 25 3e c7 fa 27 3e
       -0.29756242 -0.51067376 0.16166335 0.16404258
000380 18 17 86 be 96 73 8b 3e 26 c8 9f 3e d1 24 85 be
       -0.26189494 0.27236623 0.3120739 -0.2600465
000390 85 35 a2 3e 42 ab 9e 3e 04 f5 a3 be 04 40 ae be
       0.31681457 0.30990034 -0.3202287 -0.34033215
0003a0 66 98 b9 3e c4 18 a8 be 5a e2 0f bf d0 ab 1c 3f
       0.36249083 -0.32831395 -0.5620476 0.61199665
0003b0 b9 0f 0c 3f 5d 2b a5 3e fa 46 c7 3e 12 92 82 3e
       0.5471149 0.32259646 0.38921338 0.25502068
0003c0 25 fd d9 be d9 80 f5 3e a2 1c c1 be e6 46 d5 be
       -0.42575946 0.47949865 -0.37717158 -0.41655654
0003d0 5d 71 9a be 41 47 80 3e 01 d5 8b 3e 12 61 b8 be
       -0.30164614 0.25054362 0.27310947 -0.3601156
0003e0 ab fb a7 be 17 b1 d2 be 49 a2 d6 3e 18 68 f2 be
       -0.32809195 -0.41150734 0.4192069 -0.47345042
0003f0 59 29 1a 3f 3e 05 9b be 9d 5e cf 3e d6 8d b4 3e
       0.6021934 -0.30277437 0.40501872 0.35264462

rnn.bias_ih_l0 f4 [128]
000000 88 50 a5 3f f8 5d eb 3d bd 91 95 3d bb 3b 0a bf
       1.2915201 0.114925325 0.07303188 -0.5399739
000010 b8 05 26 3f ac bc 4a 3f cc b6 1b 3f bd e1 de 3e
       0.64852476 0.7919414 0.608258 0.435316
000020 cf 7b 04 3f 59 51 58 bf 20 fa 14 bf d8 26 9f 3f
       0.51751417 -0.84499127 -0.5819416 1.2433729
000030 89 df dc 3e 3d d6 13 bd b9 80 16 3f 53 6c 06 3f
       0.43139294 -0.036092985 0.58790165 0.5250904
000040 39 86 c9 3e 7f 5b 3f 3f 27 f6 97 bc 2f 50 b4 3e
       0.39360216 0.74748987 -0.018549992 0.35217425
000050 13 2f 55 3f 61 da 9b 3e d5 19 f8 bd 39 2f a4 be
       0.83274955 0.30440047 -0.12114302 -0.32067278
000060 67 e6 c8 3e 5f 30 bf 3e 6f 5b 13 bf 5a ba 85 be
       0.39238283 0.37341592 -0.5756139 -0.26118737
000070 71 42 02 be 99 92 fa 3e 1a 60 0c 3f de eb 65 3e
       -0.12720658 0.4893997 0.5483414 0.22453257
000080 66 d0 22 3f 29 70 5b 3f 72 65 99 3e 1e 32 3d be
       0.6359924 0.8571802 0.2996021 -0.1847615
000090 47 96 46 be f9 32 0b 3e 7a 1a 89 3f cb 8f 9a be
       -0.19393264 0.13593663 1.0711205 -0.3018783
0000a0 81 94 f3 3e 90 d8 cd be 6e 59 97 be 31 34 1c 3f
       0.47574237 -0.40204287 -0.29560417 0.6101714
0000b0 43 34 8e bf 2f 06 f2 3e 93 0c 39 be a7 81 4b be
       -1.1109699 0.47270343 -0.18071203 -0.19873677
0000c0 29 c1 41 bf dc 88 7c bf 78 7f bd 3d 0c d4 3b 3e
       -0.75685364 -0.9864633 0.09252828 0.18342608
0000d0 4b 2f 57 3e 06 38 59 be 2d e6 eb 3e 0c 14 b4 3e
       0.21014135 -0.21212777 0.46074048 0.35171545
0000e0 cc b2 da 3e 5c e5 62 be 7c 1e 9d be 1b dd 14 bf
       0.42714536 -0.22157806 -0.3068732 -0.5814988
0000f0 a0 17 c4 be 12 e3 2a bf ec 10 1c be 42 e4 0e bf
       -0.38299274 -0.6675273 -0.1524083 -0.55817044
000100 56 c9 8d 3f e0 53 17 bf ce 45 80 be a2 94 b5 3e
       1.1077068 -0.5911236 -0.25053257 0.3546496
000110 d5 c5 5f bf f4 1e f3 3e fc 7e d7 be 2d 3f 23 3e
       -0.8741124 0.47484553 -0.4208907 0.15942068
000120 38 ec 73 be 03 82 6b bf ef d9 8f bd 82 75 11 3e
       -0.23820579 -0.9199526 -0.070239894 0.14204982
000130 76 10 e0 be 29 7a 3e be 98 3a 25 3f 3d b7 61 3e
       -0.4376256 -0.18601288 0.6454253 0.22042556
000140 22 c5 d5 bd ac 4b be 3e 5d 9e d9 be f1 85 00 be
       -0.10437991 0.37167108 -0.42503634 -0.12551095
000150 43 ed 56 3f 54 d0 29 bf f8 b8 c5 bd 71 5e 4c 3f
       0.8395578 -0.6633351 -0.096544206 0.79831606
000160 91 b4 39 bc 83 11 e7 3e 65 d1 91 3c da 5c 38 bf
       -0.011334554 0.45130548 0.017800042 -0.7201668
000170 aa f4 9b be 1a 51 8d be af af 31 bf 10 89 94 be
       -0.304601 -0.27600938 -0.69408697 -0.2901082
000180 27 d6 9a be f2 a0 af be 75 8c a5 3d fa 02 f6 3d
       -0.3024151 -0.3430248 0.08083431 0.120122865
000190 64 91 a7 3e 6a 46 11 bf 5d a6 8b be 9d 85 8f be
       0.32728112 -0.5674807 -0.27275363 -0.28031626
0001a0 68 18 27 3d 93 bb 91 be 9a 11 1e 3f 82 41 b9 be
       0.04079476 -0.2846342 0.6174561 -0.3618279
0001b0 0f 11 29 bf 4e ba 41 3f fa ee 51 3e 9d ed d3 be
       -0.66041654 0.75674903 0.20501319 -0.41392222
0001c0 bd f2 9e bf 49 82 8e be 24 bd 2e 3f 9b 13 86 3e
       -1.2417828 -0.27833775 0.68257356 0.26186833
0001d0 29 49 0f 3f fc 96 ff 3e 1f 03 ce bd 21 80 8c 3e
       0.5597101 0.4991988 -0.10059189 0.27441505
0001e0 dc 95 67 bd e4 a6 df 3d c1 a7 52 3e 35 cf 68 3f
       -0.0565394 0.10920504 0.20571806 0.9094117
0001f0 86 ab 1d bf 12 6f 4d be dd 7a 42 3f a4 4a fa 3e
       -0.6158985 -0.20061901 0.75968724 0.4888507

rnn.bias_hh_l0 f4 [128]
000000 b5 89 aa 3f e1 c6 10 3e 8c d1 51 3c c7 47 0a bf
       1.3323275 0.14138366 0.0128063075 -0.54015774
000010 66 d0 25 3f b6 d3 32 3f 28 79 1f 3f 3f 5e ba 3e
       0.64771116 0.69854295 0.62294245 0.3640003
000020 ad 2b 08 3f 15 21 45 bf 4a a4 23 bf 4b fe a1 3f
       0.53191644 -0.77003604 -0.6392256 1.2655729
000030 5d 72 04 3f 96 0e 96 3c c7 cd 30 3f 25 92 e8 3e
       0.51737005 0.018317502 0.6906399 0.45424
000040 62 7a ad 3e 43 a3 33 3f 29 76 06 bd 15 7c d0 3e
       0.33882433 0.7017099 -0.03282753 0.40719667
000050 0c 74 50 3f 13 a7 9b 3e b7 7f 6c be 5f 19 90 be
       0.81427073 0.30400905 -0.23095594 -0.28144357
000060 65 e4 df 3e b3 3d cc 3e f0 88 18 bf da ea 83 be
       0.4372894 0.39890823 -0.5958395 -0.25765115
000070 69 6c 5d be a9 e2 1e 3f e2 d7 ea 3e bb e3 29 3e
       -0.21623386 0.62064606 0.4586783 0.16590779
000080 e2 e4 15 3f d4 3f 64 3f d1 86 80 3e 72 0b 90 be
       0.5855237 0.89159894 0.25102857 -0.28133732
000090 6b 5b 57 be a6 ee 1b 3e ec 91 86 3f 39 9a 8f be
       -0.21030967 0.15227756 1.0513282 -0.2804735
0000a0 17 cf 08 3f 4e e3 bc be 73 3a 79 be b5 95 14 3f
       0.53440994 -0.3689217 -0.24338703 0.58040935
0000b0 d4 8e 8e bf c0 94 06 3f 57 a3 7d be 4b 4e 20 be
       -1.1137338 0.52570724 -0.2476934 -0.15654866
0000c0 5d 68 60 bf 6b ba 81 bf 9a 58 e6 3d c6 a4 a1 3e
       -0.87659246 -1.0135015 0.11247368 0.31571025
0000d0 2f 94 35 3e 3e d8 0b be 95 51 e7 3e fe e6 83 3e
       0.17732309 -0.13656709 0.4517943 0.2576217
0000e0 be c2 e3 3e e7 9a 78 be 72 7c 95 be 57 9b 10 bf
       0.44484514 -0.2427784 -0.29196507 -0.5648703
0000f0 83 55 97 be ee 59 1b bf 03 23 a4 be 1d bd 15 bf
       -0.29557428 -0.60684097 -0.32057962 -0.5849169
000100 cf fe 8d 3f a1 65 09 bf f4 dc 91 be c7 eb ba 3e
       1.1093386 -0.536707 -0.28488886 0.3650801
000110 85 44 53 bf 1a 08 d4 3e 09 2a ea be 53 48 29 3e
       -0.8252643 0.4141243 -0.45735195 0.16531496
000120 16 33 2a be 7a bb 73 bf 3a 98 65 bc fc b4 56 3d
       -0.1662105 -0.9520794 -0.014013344 0.052418694
000130 dc d1 ce be e0 b1 85 be e2 31 33 3f a9 d4 1e 3e
       -0.40394485 -0.2611227 0.6999799 0.15510811
000140 bb 01 de bd 0e bd d0 3e b5 9d ce be 98 18 e6 bb
       -0.10840174 0.40769237 -0.40354696 -0.007021975
000150 79 5f 43 3f 93 f8 0c bf 00 15 7a be 6f 10 2f 3f
       0.76317555 -0.55066794 -0.24422073 0.6838445
000160 a4 c8 99 bd 56 0e ce 3e 04 e8 f4 3b a1 6a 3d bf
       -0.07508972 0.40245312 0.0074739475 -0.7399083
000170 19 60 87 be b0 cd 71 be 02 46 30 bf b1 92 24 be
       -0.26440504 -0.2361362 -0.68856823 -0.16071583
000180 3d 9b 35 be aa 20 c4 be fd 31 99 3d b7 c3 c0 3d
       -0.17735 -0.3830617 0.07480238 0.0941233
000190 fb fb 9e 3e 61 22 25 bf 75 9f 87 be 7a fc 92 be
       0.3105162 -0.64505583 -0.26488844 -0.2870825
0001a0 36 dd 84 bc 90 3e 11 be f1 93 14 3f 63 a0 ec be
       -0.016218763 -0.14184022 0.5803824 -0.46216115
0001b0 56 16 2a bf 5a 14 25 3f ca ae b0 3e b7 4d 86 be
       -0.6644033 0.6448418 0.34508353 -0.26231167
0001c0 b2 f0 98 bf 4d 43 72 be 64 bc 2f 3f 9a 92 4a 3e
       -1.1948454 -0.23658486 0.68646836 0.19782487
0001d0 a5 67 14 3f 06 c2 d6 3e ce 3c 24 be 47 28 54 3e
       0.5797065 0.41944903 -0.1603882 0.2071849
0001e0 52 6b dc bd 0d 21 bd 3d 73 ba 68 3e f6 58 6e 3f
       -0.10762657 0.092348196 0.22727375 0.93104494
0001f0 94 33 3f bf 3f 3a 89 be bf ca 5d 3f ea 0d 0b 3f
       -0.74688077 -0.2680225 0.8663749 0.54318106

fc.weight f4 [5, 128]
000000 01 9c 9a bd d8 5c ee bc 81 30 81 bd 3f 28 a6 bc
       -0.07549287 -0.029097006 -0.063080795 -0.020282863
000010 c3 fa d2 bd 23 35 ad bd 7b 7d 68 3c e7 61 e1 3b
       -0.10301735 -0.08457401 0.014190073 0.006878126
000020 3b 72 35 be 7d d5 cd 3b 01 a0 d4 bc ce 00 97 be
       -0.17719357 0.0062815533 -0.025955202 -0.294928
000030 d2 98 07 3d 27 9d 30 bd 34 05 8b 3d 79 63 84 bd
       0.033104725 -0.043118622 0.06788102 -0.064642854
000040 fe b6 81 bb 5a 73 34 3d 26 97 8c 3d f3 cd 92 3d
       -0.003958582 0.04405532 0.06864767 0.07168188
000050 b8 64 e6 3c b6 e7 fa bc 0a 7c c7 bb 5b c6 17 bd
       0.028124198 -0.030628067 -0.0060877847 -0.0370544
000060 d7 63 cc 3d 67 54 af bc 55 b0 f5 bc 30 d7 99 3b
       0.099799804 -0.02140255 -0.029991308 0.004694842
000070 84 f9 f6 bd 6d d9 5c 3d 22 e5 6c bb 75 2b 78 bd
       -0.1205931 0.05391829 -0.0036147316 -0.06058832
000080 fa 67 7f bb c5 60 17 bd 57 35 f6 3d 37 5c d5 bd
       -0.0038971887 -0.03695752 0.120218925 -0.10417979
000090 20 f0 03 bb 52 67 79 3d 6c cb af 3c 95 fe 0b 3d
       -0.002013214 0.06088955 0.021459304 0.034178335
0000a0 35 9b b2 3b 58 d9 57 bd d6 e6 01 3d a4 e1 56 3d
       0.005450631 -0.05269751 0.031714283 0.05246128
0000b0 69 0f 6d 3d b7 10 61 3c d1 63 10 3d f6 b4 51 3d
       0.057876024 0.013736895 0.035251442 0.05119797
0000c0 4b 18 75 bd 25 f6 c1 3a dc 7e 3d be 16 d0 80 bd
       -0.05983762 0.0014798088 -0.18505424 -0.06289689
0000d0 36 fd ac bc 75 e7 ae bc 99 34 a6 3b f4 21 7d bd
       -0.021116834 -0.021350602 0.005072188 -0.06179996
0000e0 09 a8 8f bd 4e f5 6b bb b7 16 99 bd d9 1a 37 3c
       -0.07014472 -0.0036004367 -0.07475036 0.011175835
0000f0 04 e2 23 bd 18 4f cd bc d6 35 98 3d cf 76 2d 3d
       -0.040010467 -0.025062129 0.074321434 0.042349633
000100 0d 89 a3 bd a6 fb 89 bd d0 32 5c bd 4e 15 fd bc
       -0.07985125 -0.06737451 -0.053759396 -0.030893948
000110 b1 f2 08 3e ca 29 5e bd 9d e9 09 3c 81 88 71 3d
       0.1337383 -0.054239072 0.008417514 0.05896807
000120 8f ea ae bd 92 a5 e5 3b 43 67 1f bd 0b 81 95 bd
       -0.08540832 0.007008263 -0.038916837 -0.073000036
000130 b4 7b 53 3c c7 73 c6 3c 41 fa a0 be 41 a5 9a bd
       0.012907911 0.024225129 -0.3144093 -0.07551051
000140 ba 19 d6 bc 08 3f 17 3d d9 c8 00 be 76 4a 1e 3d
       -0.026135314 0.036925346 -0.12576617 0.03864523
000150 7a 8e f4 bc 58 7d e8 bb 53 6a f3 bb 40 34 85 bd
       -0.029853094 -0.0070950203 -0.0074284463 -0.065041065
000160 57 4b 8d 3b 57 4d 58 bd 16 3c 1b 3d e6 65 38 3c
       0.0043119597 -0.052808132 0.0378991 0.011254763
000170 1c df ac 3d 16 e2 db bb ff eb af bd 42 c7 b5 bd
       0.08440992 -0.006710301 -0.085899346 -0.08875896
000180 3a e1 a6 3d 15 e5 11 3d 83 cd c5 bd 4f 9f 21 bd
       0.08148427 0.03561886 -0.09658339 -0.03945857
000190 a0 1b fd bc 5b 01 62 3d 05 cf 8d 3c fb 35 df 3c
       -0.030896962 0.055177074 0.017310629 0.02724742
0001a0 d0 ed d6 3e 2d b2 9c 3d ba aa a0 bd d1 6c b2 bd
       0.41978312 0.07651172 -0.078450635 -0.08712161
0001b0 aa 2f 2d bd 31 7e 18 bd af be 1e 3d 6b c3 e2 bb
       -0.042281784 -0.03722972 0.03875607 -0.0069202683
0001c0 55 10 df 3d c7 e5 2b 3e f2 27 e9 bb a2 07 2c be
       0.10891787 0.16786872 -0.0071153576 -0.16799787
0001d0 c2 e0 3e 3b c2 18 ad bd 86 33 9c 3d 88 fb 7a be
       0.0029125665 -0.08451988 0.07627015 -0.24510014
0001e0 48 4e 02 3d b5 a5 84 3c dc 31 99 3b 07 de b5 bd
       0.031812936 0.016192297 0.004675133 -0.08880239
0001f0 a2 f6 e5 3c 83 51 05 bd 36 37 03 3e 24 71 8b 3b
       0.028071705 -0.03254844 0.1281403 0.004255431
000200 7e c4 b2 bd de 65 83 3c 8d f1 cf 3b 10 ac c5 3c
       -0.08728884 0.016039785 0.006345934 0.024129897
000210 c2 55 db b9 36 77 22 bd 8f cc 2b bd 3e d0 99 3b
       -0.0004183483 -0.03966447 -0.04194313 0.004694014
000220 c4 eb b6 bd 35 59 0e 3d 22 47 35 3d d2 7a 8d bd
       -0.089316875 0.034753043 0.04425729 -0.06908192
000230 9e 76 cc b9 26 80 00 3d 7d 12 8a bd 18 06 20 bd
       -0.0003899829 0.031372212 -0.067418076 -0.03906831
000240 5b e8 ac bc 13 10 a4 3b ba ed 66 3c 66 ea 63 3b
       -0.02110689 0.005006799 0.014094764 0.0034777164
000250 c9 f0 48 bc f8 92 c9 3d 8b c7 bb 3c 21 2f 52 3c
       -0.012264439 0.09842485 0.022922298 0.012828619
000260 16 90 10 3d b7 99 2a 3d 99 5b 5a 3d 14 92 2b 3d
       0.03529366 0.0416505 0.05331001 0.041887358
000270 aa e8 d1 bd e1 59 e7 bd 8e ab 1a 3b 35 40 db bc
       -0.10249455 -0.1129644 0.002360079 -0.026764015
000280 d4 34 4b bd c1 c4 69 3c 3c a2 11 bd e8 bf b2 bd
       -0.049610928 0.014268101 -0.03555511 -0.087280095
000290 bd d7 2a 3c 65 98 03 3e cc 10 9c bc 3b da b2 3c
       0.010427413 0.12851103 -0.019050978 0.021832576
0002a0 19 49 72 3d 90 b1 24 bd 87 4a e7 3d 70 34 b7 3b
       0.059151743 -0.0402084 0.11293512 0.005590968
0002b0 73 06 14 bd 9c ca e0 bc 12 89 ab 3c 01 30 a1 3d
       -0.036138963 -0.027440362 0.020939384 0.07870484
0002c0 72 a6 1d bd 64 cd f7 bd c4 ea 79 3d c6 e6 7a bd
       -0.038488813 -0.12099722 0.061014906 -0.06125524
0002d0 f3 5f 96 bd 57 83 3e bd 71 0f aa bc 6b 59 48 bd
       -0.073425196 -0.046511974 -0.020759316 -0.0489134
0002e0 44 03 6e bc 35 df 8a 3d 02 f9 56 bc 85 58 58 3d
       -0.014527146 0.067808546 -0.0131208915 0.052818794
0002f0 0b de 43 bd ee 71 50 bd 4e e2 46 3c d2 b8 be bd
       -0.04781918 -0.0508899 0.012138916 -0.093125954
000300 4a 06 39 3d 48 3e 23 3d 30 b3 2d bd f0 49 c5 bc
       0.045172013 0.039854318 -0.042407215 -0.024083108
000310 f4 3a 69 3d 00 ea 48 bd 35 af 90 3d 9a 08 56 bd
       0.056940988 -0.049051285 0.07064668 -0.052254297
000320 a7 bf e1 bb 82 fc 2d bb b3 1c 07 bc c2 f7 d6 bc
       -0.006889302 -0.0026548211 -0.0082465885 -0.026241187
000330 28 3a 32 bd 1b 82 f9 bc 3f b9 8d bd 9a 1b ea bd
       -0.043512493 -0.030457547 -0.069200985 -0.11431046
000340 d0 f9 f4 bc 5b eb ad bd 82 bb 37 bd e0 4a 47 3a
       -0.029904276 -0.08492156 -0.044856556 0.0007602405
000350 5d d5 d0 bc 06 f8 bc 3b 02 5c 94 bd df e3 48 3c
       -0.025492365 0.0057668714 -0.072441116 0.01226136
000360 4c fd 4f bd 50 76 ba bc 6c 40 6a bd b5 e8 c2 3d
       -0.050778672 -0.022761494 -0.057190344 0.095170416
000370 02 0b ba 3b f4 6c ae 3c 8e c7 83 3c 22 a5 ba bc
       0.0056775818 0.021292187 0.016086366 -0.02278382
000380 2f 9f c0 3c c5 a4 7d 3d 21 55 6f ba b6 f3 b8 3b
       0.023513405 0.061924715 -0.00091298117 0.005644287
000390 a7 3b 24 bc 94 75 28 bd 64 4c 96 3c f4 70 c7 3b
       -0.010023988 -0.041127756 0.018346973 0.006086463
0003a0 34 c5 b9 3d 97 51 51 3b 75 05 95 3c d7 b9 0c 3c
       0.09070817 0.00319395 0.018191079 0.00858923
0003b0 dd df 91 bd d5 de c2 bd 35 09 ee ba f2 d3 58 3d
       -0.07122777 -0.09515158 -0.0018160703 0.0529365
0003c0 f1 7e 10 3d 1d 78 83 bc bd 5a 8a bd 27 4b 29 bb
       0.03527731 -0.016048485 -0.06755588 -0.0025832148
0003d0 2e b8 79 3c 9d ca 21 3c 12 19 17 bd 40 fc 5a bd
       0.015241666 0.009874967 -0.036889143 -0.05346322
0003e0 08 07 80 3d da 6f ba bc 12 31 1a bd fe 39 ac 3b
       0.06251341 -0.022758413 -0.037644453 0.0052559366
0003f0 bf 07 6e 3d da b3 a0 bd f6 c6 4d bb d1 d1 0d 3c
       0.058112856 -0.07846804 -0.0031399108 0.008655981

fc.bias f4 [5]
000000 4b 71 46 3d 55 8e c7 3d 9c 17 bd bd 30 8e 73 be
       0.04844789 0.097439446 -0.09233019 -0.23784709
000010 61 b6 c4 3d
       0.096050985
